web-app/weights.npz (npz, 792354 bytes, 5 tensors)

W1 f4 [3072, 64]
000000 95 04 d9 bc fa 6b 5d 3c 88 62 15 3c a2 ff 8d bc
       -0.026491443 0.013514513 0.00911773 -0.01733381
000010 c9 27 a9 bc 2c ae 9f bc e1 67 d3 3b 89 1b f4 3b
       -0.020648854 -0.019492231 0.0064515923 0.0074495715
000020 6e 47 17 bc d6 91 a3 3b 50 3e d0 3a 89 b0 70 bb
       -0.009233339 0.0049917502 0.0015887711 -0.0036726317
000030 01 f5 1e 3c d4 6b 45 bc 49 03 3c 3c 65 b7 ee bb
       0.009701968 -0.012049634 0.011475393 -0.007285046
000040 88 f1 91 3c 4a b6 24 bc c5 67 66 bb ab 7d 19 3a
       0.017815366 -0.010053227 -0.0035157066 0.0005855213
000050 cb 29 09 3a ae d5 a0 3b 6e a5 52 bc c8 77 c3 b9
       0.0005232363 0.004908285 -0.012856824 -0.00037282542
000060 4f 0d b5 3a a7 ed ac bb 56 63 84 3b 67 97 5c bc
       0.001381317 -0.005277354 0.004040162 -0.0134638315
000070 36 f1 55 bb 15 ce f6 bb be fb 53 bb d1 14 6d 3c
       -0.0032644994 -0.007531891 -0.0032346095 0.014470295
000080 3b 42 70 3c 5d 26 50 3c f3 78 97 bb a2 b4 14 3c
       0.014664228 0.012704459 -0.0046225726 0.009076269
000090 0b 47 93 3a 77 05 ef 39 68 dc 4a ba b2 0c 90 3c
       0.0011236382 0.00045589704 -0.00077385316 0.017584179
0000a0 6c c7 5f 3c da 14 f4 3b 8b 35 df ba cf 52 cf 39
       0.013658386 0.0074487748 -0.0017029507 0.00039543814
0000b0 38 df ad 3b 18 eb aa bb f4 bd 19 3c dd ee 16 bc
       0.0053061508 -0.0052160136 0.009383667 -0.009212223
0000c0 01 66 80 3b d0 92 bb bc 2f 6c b4 bb 3f 34 aa 3c
       0.00391841 -0.022897154 -0.0055060606 0.020776866
0000d0 e2 c2 29 3c a6 93 7b 3c d3 a9 da bb 62 04 88 3a
       0.010361405 0.015355026 -0.0066730767 0.0010377283
0000e0 e7 08 52 3c d9 73 cf 3b 99 a5 a6 3b 7a 93 85 3c
       0.012819505 0.006330949 0.0050856587 0.016305674
0000f0 01 78 2a bc 4f 7e f1 ba 5e b1 8f bc 87 6c 33 bc
       -0.010404588 -0.0018424484 -0.01754063 -0.010951168
000100 bb fd 2f 3c 7a 4d 16 bc da 04 f1 3b 2b dd 87 3c
       0.010741646 -0.009173745 0.0073553147 0.016584953
000110 25 3a e9 ba f1 59 aa 3b e4 90 f3 3b 3e 22 48 bc
       -0.0017793818 0.00519871 0.007433044 -0.012215195
000120 c5 ff c9 bb 6e 73 24 bc 99 df af bb 35 a8 ea 3b
       -0.0061645233 -0.010037286 -0.005367231 0.007161165
000130 b8 08 c3 bb 6f 5c b8 b9 02 cc 2a bc 1b f0 48 3c
       -0.005951967 -0.00035164083 -0.010424616 0.012264277
000140 24 9f b2 bb 3f 86 79 3c 53 b9 1f 3a aa 86 66 bc
       -0.0054511 0.015229761 0.0006092984 -0.014070192
000150 6b 29 e0 ba 17 20 2e bc 35 1e c1 3b 99 46 2b bb
       -0.0017102187 -0.010627768 0.0058934935 -0.0026134609
000160 46 ec d5 3a cc 0e 72 bb e7 fb b5 bb 01 85 1f bc
       0.0016321025 -0.003693509 -0.0055537107 -0.0097363
000170 f9 01 09 3c 46 f6 e2 ba fd 3f 4e bb 7c e7 01 bb
       0.008362287 -0.0017315827 -0.0031471245 -0.0019821813
000180 70 74 de bb 4e 08 4c bb f5 c2 06 3b 94 6e 29 bc
       -0.006788783 -0.003113288 0.002056298 -0.010341305
000190 1d b6 11 bc 6c d1 61 3c f5 bf 6d bb 46 bc b4 bb
       -0.008893517 0.01378284 -0.0036277745 -0.005515608
0001a0 0f 2e 5c bc 80 5f 0b 3c 94 00 2d bc 91 7c 20 b9
       -0.013438716 0.008506656 -0.01055922 -0.00015305194
0001b0 ac ee 8b bc df 0c 06 3c 94 d2 40 3c c7 c5 9e 3b
       -0.017081581 0.00818178 0.011768956 0.0048453542
0001c0 e7 68 7b bc 3c 6c 09 3c 4c 8d 07 bc b0 d9 3f bc
       -0.015344835 0.0083876215 -0.008273434 -0.011709616
0001d0 00 52 7b bb c7 2b 84 bb 8d 7e a5 bb c5 ad 50 3c
       -0.0038348436 -0.004033539 -0.0050504864 0.012736742
0001e0 9d ce a4 3c c0 51 60 bc 73 b7 e1 bb e1 16 bb 3a
       0.020118052 -0.013691366 -0.006888324 0.0014273786
0001f0 94 c2 7e bb d5 df 82 3b b7 13 16 3c 23 8c f5 3b
       -0.0038873302 0.003993968 0.009159974 0.0074935122
000200 9f ca c7 3b 3e e9 87 3c 73 2a 82 bc 98 80 72 3c
       0.0060971524 0.01659071 -0.015889382 0.014801167
000210 40 54 87 bb c7 a2 00 3c a3 b3 28 bc f3 d9 14 bc
       -0.0041299164 0.007851309 -0.010296735 -0.009085166
000220 6c f6 d8 3b d1 01 9e bc 35 1c 22 3c fe 6e 4e 3c
       0.0066211727 -0.019287976 0.00989442 0.012599705
000230 b3 06 e9 3a 29 cc b9 3a 3c 95 08 bc 04 01 dd 3b
       0.0017778486 0.0014175224 -0.0083363615 0.006744506
000240 8c d8 63 3b d8 fa 16 bc 9e 47 80 bb 82 dd d0 ba
       0.0034766523 -0.009215079 -0.0039147874 -0.0015935155
000250 36 b6 80 bb a6 4c 5f bc 13 0e e5 3b c5 93 1f bb
       -0.0039279712 -0.013629114 0.006990203 -0.0024349552
000260 81 1c 21 39 57 7c bd bb 6c ba 9b 3b cb 36 02 3b
       0.00015364775 -0.0057826447 0.004752448 0.0019869085
000270 23 b4 46 3c 1f 7b 9d 3b 47 d8 04 bb 42 64 f2 bb
       0.012127909 0.004805937 -0.0020270513 -0.0073972056
000280 09 e0 0d 3c 96 2c 39 bb db 12 e1 ba 00 66 e1 ba
       0.008659371 -0.0028255335 -0.0017171757 -0.0017196536
000290 78 99 83 bb ae 8e ca ba 0d cb 9d 3c d7 ac 2b bc
       -0.0040160976 -0.0015453899 0.019261861 -0.01047822
0002a0 c8 72 05 bc 48 ce 62 3c f0 a0 75 bb eb a9 93 bb
       -0.008145042 0.013843127 -0.003747996 -0.00450634
0002b0 66 8e 29 3c 29 af 68 bc fe 97 06 3c 52 3c ef 39
       0.010348892 -0.014201918 0.008214949 0.00045630574
0002c0 28 4e 98 3b c9 27 92 3b 95 c6 cd bb 48 3a 2c 3c
       0.004647989 0.004460309 -0.0062797763 0.010511942
0002d0 9f 46 b4 bb ad f9 85 3b ee c9 4a 3c 54 eb 61 3c
       -0.0055015828 0.0040886016 0.012377245 0.013789017
0002e0 99 12 2f bb 9a c2 97 3b 35 98 6b bb 36 1c cd 3c
       -0.0026713966 0.0046313526 -0.0035948877 0.025037866
0002f0 10 a0 ff 3b 3d 59 5c 3a 25 d9 4c 3b 30 65 85 3b
       0.0078010634 0.00084056315 0.0031257358 0.0040709004
000300 cd 19 8f 3b 3d 51 1d bb 88 35 81 bb 19 09 c7 ba
       0.0043670894 -0.002400472 -0.003943149 -0.0015185206
000310 22 ba 3a bc 11 5e eb 3b 72 5a 03 bc 66 aa 2d bc
       -0.011396917 0.0071828444 -0.008017169 -0.010599708
000320 7a 84 16 b9 72 a8 aa ba b7 99 23 3b 86 30 ba bb
       -0.00014354466 -0.0013020171 0.0024963447 -0.005682054
000330 db a0 80 bb 1c c9 e2 3b 8b d6 ce 3b d7 2c c1 3b
       -0.0039254255 0.0069209468 0.0063121966 0.005895238
000340 8f 16 b2 39 87 64 dd 3a cc 05 17 3b a6 fb d6 bb
       0.00033967613 0.0016890921 0.0023044227 -0.0065607606
000350 4d 82 71 3c d9 2a 5a 3c 13 21 02 3c 63 89 8b bb
       0.014740539 0.01331588 0.007942456 -0.004258321
000360 af aa b0 3b b9 4b 20 3c 74 6a 48 bc 33 d0 8a 3c
       0.005391441 0.009783679 -0.012232412 0.01694498
000370 5b 7d 8e bc e4 e1 e6 3b 02 1a 6e 3c 89 34 94 ba
       -0.017393759 0.007045971 0.014532568 -0.0011307161
000380 eb 40 c5 ba c8 c9 da 3b c7 b4 97 3c 14 32 38 bb
       -0.0015049254 0.006676886 0.018518819 -0.002810602
000390 69 e7 ff bb dd dc 8a bb 83 5e 7e bc b2 16 13 3c
       -0.0078095687 -0.0042377547 -0.015525463 0.008977579
0003a0 69 74 a8 bb c1 8c 08 bb 71 08 15 3c a8 05 77 bb
       -0.0051408303 -0.002083585 0.009096251 -0.003769258
0003b0 2c c1 f8 3b 73 14 2a bc 58 14 1d 3c 9b 14 60 3b
       0.0075913873 -0.010380852 0.00958737 0.003419197
0003c0 0b 3b 68 ba 90 90 ab 3a 00 d2 52 bc 93 8c 8d 3a
       -0.0008858896 0.0013089348 -0.012867451 0.0010799341
0003d0 12 c1 b9 ba 98 57 4e bc 2c e6 db bb 82 67 a9 ba
       -0.0014171919 -0.012594126 -0.0067107882 -0.0012924524
0003e0 78 02 c7 bb 81 9a c5 bc f7 5a 30 3c 21 44 ba ba
       -0.0060732923 -0.024121525 0.010763875 -0.0014210978
0003f0 16 48 ba bc 69 e5 ae 3c e3 64 4b 3c d9 b7 64 bb
       -0.022739451 0.021349626 0.01241419 -0.003489962

b1 f4 [1, 64]
000000 eb 33 b4 b6 b4 dd 82 b6 29 52 6a b4 30 e2 76 b5
       -5.370462e-06 -3.9001116e-06 -2.1822838e-07 -9.197129e-07
000010 bb 59 39 36 48 1f 13 b7 c7 ab b9 36 68 72 1f 38
       2.7619378e-06 -8.769166e-06 5.533427e-06 3.8015103e-05
000020 30 47 4a 35 72 c0 91 37 ce b6 12 31 61 b6 66 b7
       7.5354455e-07 1.7374961e-05 2.1349709e-09 -1.3751532e-05
000030 cb 76 2f b7 b4 cf 0b b7 71 a1 17 b7 3d da 03 38
       -1.04584715e-05 -8.333405e-06 -9.03789e-06 3.1436084e-05
000040 c6 6a 91 35 02 57 94 b5 6a ee 9e 38 87 73 34 35
       1.0834417e-06 -1.1052182e-06 7.578435e-05 6.722334e-07
000050 7a 31 15 34 e2 1b c7 33 00 00 00 00 34 da ec b5
       1.3894706e-07 9.2717315e-08 0.0 -1.7646876e-06
000060 00 00 00 00 f4 35 13 38 de 2d 8c b6 1c 90 bd b6
       0.0 3.509778e-05 -4.177665e-06 -5.6494155e-06
000070 24 88 cf 37 5b ed e2 35 49 c9 06 b4 1b fc e1 34
       2.4739718e-05 1.6907392e-06 -1.255295e-07 4.2092947e-07
000080 2c 71 f4 b6 1e 9c a5 37 00 00 00 00 fa 1a 95 b7
       -7.2849416e-06 1.974223e-05 0.0 -1.7774746e-05
000090 b0 32 10 b7 38 5c f7 b2 d6 a1 32 b5 00 00 00 00
       -8.59487e-06 -2.879652e-08 -6.654567e-07 0.0
0000a0 00 00 00 00 75 64 88 b6 52 23 85 b4 8c 23 4d 37
       0.0 -4.0648106e-06 -2.479888e-07 1.2227229e-05
0000b0 f8 44 5e b4 34 34 b7 b6 f9 fa ae 37 43 87 09 38
       -2.0700452e-07 -5.4599022e-06 2.0859285e-05 3.2789318e-05
0000c0 ea a9 98 b6 92 42 72 b4 e6 b9 59 37 9c 59 a2 35
       -4.5497336e-06 -2.2562224e-07 1.2977491e-05 1.209602e-06
0000d0 8a b1 95 36 05 43 86 35 96 0d 01 35 52 1d 69 34
       4.4612143e-06 1.0003283e-06 4.8076015e-07 2.1710483e-07
0000e0 f1 5e 79 35 82 a6 93 b7 00 00 00 00 28 29 c1 b6
       9.2897886e-07 -1.7601302e-05 0.0 -5.7566394e-06
0000f0 53 cc 27 b7 9b 37 54 b6 6f 3b f4 37 d0 49 27 37
       -1.0001549e-05 -3.1622828e-06 2.9114743e-05 9.9711615e-06

W2 f4 [64, 16]
000000 f1 65 a0 3b 92 f9 dd 3b b5 68 94 3c cf 0c 82 3b
       0.004894965 0.006774136 0.018116334 0.003968812
000010 cf 19 c6 b9 5a 7e 99 3c ca c2 43 3c 90 c6 86 3b
       -0.00037784732 0.018737007 0.011948297 0.004113026
000020 5b aa 82 3c 5d 0f 49 3c 63 ab 12 3c 75 b6 cd b8
       0.015950372 0.012271729 0.008951995 -9.809147e-05
000030 b1 d8 d4 3b 76 d2 72 bc f8 77 d8 3b 18 50 ca 3b
       0.006495558 -0.014820686 0.0066060983 0.0061740987
000040 24 38 a2 bb 50 ac 16 ba 82 55 ba ba 07 57 ad 3c
       -0.00495054 -0.00057477225 -0.0014216157 0.021159662
000050 3e 00 94 bb f3 cd b4 3b f2 9a e3 3b eb 0d ea 3b
       -0.0045166304 0.005517715 0.006945961 0.0071427724
000060 ef 8f 95 3b 5b 86 8d 3c be 90 98 bc dd fa c1 bb
       0.0045642774 0.01727598 -0.018623706 -0.005919798
000070 df fd 9f ba 9e 85 9e ba 79 c8 f0 bb a2 de 9b 3b
       -0.0012206397 -0.0012094264 -0.007348117 0.0047567645
000080 53 c3 80 3c 82 cc ce b8 3d a2 34 3c 24 ac d2 3a
       0.015718138 -9.860938e-05 0.011025009 0.001607303
000090 a5 22 82 bb d8 c4 04 bc 99 19 63 3c fa c5 20 bc
       -0.003971415 -0.008103572 0.013861083 -0.009812826
0000a0 f7 61 d5 3b d6 74 9a bb 30 4c 58 bc 9d 8f b0 3b
       0.0065119225 -0.004713635 -0.013201758 0.005388214
0000b0 ec f6 02 3c 29 25 35 bc d8 04 75 bc ad 91 ad ba
       0.007993441 -0.011056223 -0.014954768 -0.0013242267
0000c0 78 45 5e bb 28 2b ce 3b ac c4 cc 3b 72 45 0e 3c
       -0.0033915918 0.0062917657 0.006249031 0.008683549
0000d0 fc 81 f6 3b be 9c 51 ba e6 fb dd 3b f3 98 12 bc
       0.0075228196 -0.00079960737 0.0067744134 -0.008947599
0000e0 12 8d 7f 3c 6c 19 1a 3c 7a 15 d9 b7 be c4 1b 3c
       0.015597599 0.009405475 -2.5878417e-05 0.009507356
0000f0 0b 90 ce bb 84 db 3b bc ce 14 1b bc da b3 49 3b
       -0.0063037924 -0.011465911 -0.009465409 0.0030777366
000100 51 3c 43 bc 8c 17 5a bb e7 1c 1b 3b a5 b6 c5 bb
       -0.011916236 -0.0033278195 0.002366835 -0.006033736
000110 9d 54 18 bb 1f 3d 91 3b bc 31 5a 3c 47 1a c4 bc
       -0.0023243793 0.004432335 0.013317522 -0.023938311
000120 3e dd dd ba ee 36 70 bb 94 ad 50 bc 1d 38 51 3c
       -0.0016926897 -0.0036653834 -0.012736697 0.012769726
000130 d5 d5 57 bc a0 b5 e2 bb fe 49 c5 3b 0d de f0 ba
       -0.01317354 -0.006918624 0.0060207834 -0.0018376723
000140 c1 5a 1e 3b 1c 12 9d 39 de 61 cc bb cb cc c4 3a
       0.002416298 0.00029958866 -0.0062372526 0.0015014646
000150 7a 47 96 ba d1 9a 79 bc 9b 17 3d bb c0 2b a5 3c
       -0.0011465393 -0.015234665 -0.0028853181 0.020162463
000160 99 8b 16 3c 22 59 eb 3b 01 83 e6 bb fa 50 5f bc
       0.009188556 0.0071822563 -0.00703466 -0.013630146
000170 f7 a6 6d 3c f4 4c b8 3a 78 1d 34 bc 60 c3 d2 bb
       0.01450514 0.001406102 -0.010993354 -0.006431982
000180 92 af 76 bc 5f 1d b6 3b 6d b3 30 bc ca b6 df 3b
       -0.015056508 0.0055577005 -0.010784966 0.00682721
000190 38 ba ed bb a6 5a 78 3c 54 b7 3c 3c cb fd b0 bc
       -0.007254865 0.015158331 0.011518318 -0.021605393
0001a0 74 bd 0c bb d5 9a 55 ba c8 a1 f6 bb 0d 0b a7 bb
       -0.0021475228 -0.0008148377 -0.00752661 -0.005097753
0001b0 85 07 04 3c 40 4e 1d bc 96 bc 42 39 06 dc 1c bc
       0.008058433 -0.009601176 0.00018571535 -0.009573942
0001c0 80 15 76 bb 3d 95 3f 3c d0 c0 83 bc eb 80 14 3c
       -0.0037549436 0.011693296 -0.016083151 0.00906394
0001d0 5d 00 61 bc 79 14 70 3b 85 5f b6 3b bf a1 c6 3b
       -0.013732997 0.0036633296 0.005565586 0.006061762
0001e0 79 76 1c 3c a5 dd 35 3b 00 3e c5 3c 3d 3c 90 bb
       0.00954973 0.0027750519 0.024077415 -0.004401712
0001f0 47 40 e0 bb ad f6 f2 bb 42 03 c7 bb 1e c5 c2 ba
       -0.0068436 -0.00741466 -0.0060733864 -0.0014859771
000200 54 04 54 bb ac 5e 2b 3c ac 92 da ba 9f 5e 03 3c
       -0.0032351213 0.010459583 -0.0016675792 0.008018165
000210 c1 c4 bf bb 61 0e c9 bb d2 36 03 3b 71 26 dc 3b
       -0.0058523123 -0.0061357473 0.002002169 0.0067184498
000220 5d e0 59 3c e4 00 c4 b8 c1 0f 04 3c 78 a9 38 3a
       0.013298121 -9.346174e-05 0.008060397 0.0007044296
000230 7c a9 82 3b 44 d6 26 3c 23 50 13 bc 34 e7 8e bc
       0.0039874893 0.010182921 -0.008991274 -0.01744423
000240 a2 02 8c 3c 7a 87 48 bb 6e 7d 90 bc a3 13 82 bc
       0.0170911 -0.0030598328 -0.017637935 -0.015878504
000250 e0 90 be ba 87 25 44 bc b7 63 bb 3c 97 79 3f 3b
       -0.0014539026 -0.011971838 0.022874696 0.002921676
000260 4c e3 57 bb bf be 7c ba 3a 2b 05 3c 7f 65 46 bc
       -0.0032941876 -0.00096414605 0.008127982 -0.0121091595
000270 3c a4 43 bb c7 4d 9b 3c 71 53 24 b9 29 fd 0e 3c
       -0.002985253 0.018957986 -0.00015671343 0.00872735
000280 bd e3 10 bb 19 81 44 bb 34 ec 38 bc 35 c9 55 bc
       -0.00221084 -0.0029984175 -0.011286784 -0.01304846
000290 38 b4 01 3a e4 c6 4c 3c 69 a8 35 3b ac ae d2 bb
       0.0004947814 0.012498591 0.0027718788 -0.006429514
0002a0 fe c7 96 bb fb bd c3 3b f5 f0 dd bb 00 41 10 bc
       -0.0046014776 0.005973575 -0.006773109 -0.00880456
0002b0 5f 20 4d 3c b3 9e a5 bb 0e b3 67 bb cc 23 3f bc
       0.012519925 -0.005054319 -0.0035354528 -0.0116662495
0002c0 71 b1 cd bb ee 6e 01 3c 8f 55 61 ba ee bd 88 3b
       -0.006277256 0.007899983 -0.0008595818 0.004173032
0002d0 92 d4 2a 3b a6 2f c1 3b 11 cc 54 3c 2c 3a ae bb
       0.0026066643 0.0058955727 0.012988106 -0.005316993
0002e0 b7 b1 5b 3b 3d c9 5f bb 55 63 03 bc 62 19 eb 3a
       0.0033522674 -0.0034147047 -0.008019288 0.0017936642
0002f0 68 57 c3 36 fb 0f 26 3b 31 32 0d 3b a0 26 28 3c
       5.8216283e-06 0.0025339115 0.002154481 0.010263115
000300 4f f9 38 3c f2 04 8e 3c e9 bf 1d 3b 42 39 0d 3b
       0.011289909 0.017336342 0.0024070686 0.002154902
000310 e9 07 26 bc 65 7e fc bb ef 78 9a 3c 7c 72 ae 3b
       -0.010133722 -0.007705497 0.018856494 0.005323706
000320 1c db 18 bc d0 2d 14 3c c6 e2 f8 bb 86 19 a6 3b
       -0.0093295835 0.009044126 -0.007595393 0.0050689606
000330 97 5b 9d ba 6e 1c 86 bc 3f a6 69 3a 13 30 00 3c
       -0.0012005445 -0.016370978 0.0008913017 0.007823962
000340 ad 54 8d 3b e9 08 4a bb 51 de 18 bb 14 18 2d 3a
       0.0043130727 -0.0030828065 -0.002332587 0.0006603014
000350 9a 74 6e ba 8b d0 46 bb 60 67 21 bc 1c 5b 4e 3c
       -0.00090963545 -0.0030336704 -0.009851307 0.012594964
000360 ca 6a 81 3c ba f0 e2 3b 95 ee 1a bc f5 1a 4f 3c
       0.015797991 0.0069256695 -0.009456296 0.012640704
000370 3c eb 02 3b b3 2d 89 bb e3 09 7f 3c 13 e9 f4 3c
       0.0019976636 -0.004186356 0.015566322 0.029896295
000380 d9 c0 cc bb ba 75 b8 ba 13 ff 3f bb 2b 16 fc bb
       -0.006248575 -0.0014073171 -0.0029296323 -0.0076930723
000390 56 0b b7 bc 22 37 80 3b ed ff 0d 3c f3 7b e9 bb
       -0.022344273 0.0039128223 0.0086669745 -0.0071253716
0003a0 2c 46 13 3c 11 29 7a 3c 7c c0 bf 3c 90 81 55 bb
       0.008988898 0.01526858 0.023407213 -0.0032578446
0003b0 46 1e 30 bc 8e 71 f7 3b 9c e6 2b 3c b1 c2 42 3c
       -0.010749405 0.0075513786 0.010491993 0.011887238
0003c0 d3 50 16 bb 90 44 63 bc dc 78 07 3c ff 6d d4 bb
       -0.0022936359 -0.013871327 0.008268561 -0.006482839
0003d0 e1 b5 2a 3b 0d 5c 79 bc e3 ec 02 bb cb d4 e9 ba
       0.002604835 -0.0152197005 -0.0019977621 -0.0017839907
0003e0 34 45 c4 3b 63 a2 5c bc 42 14 68 bc cd 40 65 3a
       0.005989695 -0.01346645 -0.014164986 0.0008745313
0003f0 c9 71 88 bc 92 79 30 bc df 10 54 bc 3d b9 50 bb
       -0.01665582 -0.010771172 -0.0129434755 -0.0031848692

b2 f4 [1, 16]
000000 8c fe 46 b9 6d 6f 00 b8 26 ec 88 38 56 f4 2e b8
       -0.00018977578 -3.062135e-05 6.5289714e-05 -4.171239e-05
000010 bd f8 62 b9 4f d1 a8 39 a0 06 9e b8 2e e8 2d b8
       -0.00021645702 0.00032199404 -7.535261e-05 -4.146265e-05
000020 dd eb 0c b9 6c 2f e1 b9 d1 30 01 b9 4a 92 25 b8
       -0.00013439306 -0.00042950676 -0.00012320584 -3.9475308e-05
000030 15 58 c5 b7 0c c9 0e b6 1d bd 83 b8 ef 3a 35 b9
       -2.3525246e-05 -2.1276674e-06 -6.281792e-05 -0.0001728346

W3 f4 [16, 1]
000000 d9 4a 2c bc 8a 51 05 bc c1 24 b7 3b 42 27 e6 ba
       -0.010515892 -0.008137116 0.005589098 -0.0017559307
000010 ef f6 3f 3c 76 fc 0c bc ef 27 b0 bb 59 ab f4 ba
       0.011716588 -0.008605113 -0.005375854 -0.0018666788
000020 0c 32 49 3b e9 41 c0 bc 03 e4 0a 3c 23 86 1f bb
       0.0030699996 -0.023468928 0.008477214 -0.0024341426
000030 8b 2c 79 3a 10 6b 14 3c 7d 2d 56 3a 0e 15 23 bc
       0.00095052336 0.009058729 0.00081702304 -0.00995375
